head_LP.pt (torch, 9833 bytes, 1 tensors)

weight f4 [2, 1024]
0	0xbd14a621	-0.036291245
1	0x3d1bfb62	0.038081534
2	0xbcc3c684	-0.02389837
3	0xbc9d0cf8	-0.019171223
4	0xbc853500	-0.016260624
5	0xbbda5f29	-0.006664176
6	0xbb4f3ec1	-0.0031623098
7	0x3d2aae5f	0.0416702
8	0xbd1cee73	-0.03831334
9	0x3be1f400	0.006895542
10	0xbc3211b8	-0.010868482
11	0x3b107912	0.002204482
12	0xbc323700	-0.010877371
13	0xba1b9d5c	-0.0005936229
14	0xbc13e095	-0.0090257125
15	0xbd0fed5a	-0.035138465
16	0xbd4c7dc3	-0.049924623
17	0xbd04220f	-0.032259043
18	0x3bf286d3	0.007401326
19	0x3c102e86	0.008800155
20	0x3c42b926	0.011884963
21	0xba7a4899	-0.0009547561
22	0x3acc1d4d	0.0015572697
23	0x3c7c672a	0.015405456
24	0x3ca5d88f	0.020244865
25	0x3c4f5f39	0.01265698
26	0x3c357405	0.0110750245
27	0x3b8e5311	0.0043433984
28	0xbca6c102	-0.020355705
29	0x3cd470c3	0.025932675
30	0xbbc5bf5c	-0.0060347747
31	0x3d5b0bf9	0.053478215
32	0x3cd98085	0.02655054
33	0xbd190698	-0.037359804
34	0xbc89930f	-0.016793756
35	0x3cbd1b0c	0.023084186
36	0xbc79f6bc	-0.01525658
37	0x3c75d1e9	0.01500366
38	0x3aa4b39c	0.0012565735
39	0x3b4bc6af	0.0031093766
40	0xbc69346b	-0.014233689
41	0x3c1363e8	0.0089959875
42	0xbc6130a4	-0.013744507
43	0xba03e9eb	-0.000503211
44	0x3b44f902	0.0030055647
45	0xbb2e6353	-0.0026609495
46	0xbbb3ca89	-0.0054867906
47	0x3a600a3a	0.0008546446
48	0x3ca3d181	0.01999736
49	0x3c4faa4d	0.01267488
50	0xbaacffb7	-0.0013198768
51	0x3bf2d5cb	0.00741074
52	0xbcb4647a	-0.022020567
53	0x3bb7dbd7	0.0056109237
54	0x3a541759	0.0008090637
55	0x3b5e752d	0.0033944354
56	0xbb160e81	-0.0022896829
57	0x3bafca64	0.005364703
58	0x3bf238c1	0.0073920195
59	0x3ca130cc	0.019676588
60	0x3b9229b9	0.00446054
61	0x3ca98a7c	0.020695917
62	0xbc22a851	-0.009927825
63	0x3c1b3844	0.009473864
64	0xbc2712c9	-0.01019735
65	0xbbcee602	-0.00631404
66	0xbd1644a5	-0.03668656
67	0xbd424ffb	-0.047439557
68	0xbd332c91	-0.043743674
69	0x3d859c76	0.06523983
70	0xbc278843	-0.010225358
71	0x3bd2794d	0.0064231516
72	0x3c47ae53	0.012187558
73	0xbb853f94	-0.004066417
74	0xbcba7479	-0.022760617
75	0x3b950763	0.0045479997
76	0xbc97cc12	-0.018529925
77	0xbcd48e27	-0.02594669
78	0x3d02916e	0.031876974
79	0xbd1606e1	-0.036627654
80	0x3caf5e18	0.021407172
81	0xbc4b93b3	-0.012425351
82	0x3c3b66b7	0.011438063
83	0xbac2f689	-0.0014874499
84	0x3cf30740	0.029666543
85	0x3c942beb	0.018087348
86	0xbc007e2b	-0.007842581
87	0x3c23bebd	0.009994206
88	0x3b553587	0.0032533125
89	0xbb4e7c06	-0.003150703
90	0x3d3a035b	0.045413356
91	0xbc48c5dc	-0.012254205
92	0xbd088f4a	-0.033339776
93	0x3c574c89	0.013140806
94	0x3c675b0a	0.0141208265
95	0x3d33dfa7	0.043914463
96	0xbc001132	-0.0078166
97	0xb8b8b3d7	-8.8073015e-05
98	0xbd5062a5	-0.050875325
99	0xbc335d94	-0.010947604
100	0xbc03bc8f	-0.008040561
101	0xbc3b6699	-0.011438035
102	0xbceae7de	-0.028675016
103	0x3b9677f1	0.004591935
104	0x39e24063	0.0004315405
105	0x3d023c13	0.031795572
106	0x3ba7cd83	0.0051209345
107	0x3c7c9a85	0.0154177
108	0x3c473d37	0.012160591
109	0x3cffc63a	0.031222451
110	0x3c636ffb	0.013881679
111	0x3b316f52	0.0027074409
112	0x3cce1d4d	0.025160456
113	0xbcc3c9f4	-0.02390001
114	0x3ce438ae	0.027859058
115	0xbd670adb	-0.056406837
116	0xbb86f1c7	-0.0041181776
117	0x3cd37c38	0.025816068
118	0x3c613bc1	0.013747157
119	0xbc1d5999	-0.009603881
120	0x3cbb6bf2	0.02287862
121	0x3bd103d0	0.0063786283
122	0x3d0495bf	0.03236937
123	0xbcc82f13	-0.02443651
124	0x3bfe165d	0.0077541308
125	0xbc11c4ab	-0.008896987
126	0x3c1c5122	0.009540828
127	0xbd698b19	-0.05701742
128	0xbb1e66fd	-0.0024170273
129	0xbc9404a2	-0.018068615
130	0xbd3b793f	-0.045769926
131	0x3ca47534	0.020075418
132	0x3d037829	0.032097016
133	0xba6ded35	-0.0009076179
134	0xba8ceafe	-0.0010751185
135	0x3bab1318	0.005220782
136	0x3cbb92f0	0.022897214
137	0x3cb9e28e	0.022691038
138	0x3cbd787e	0.023128744
139	0xbccf36cf	-0.02529469
140	0xbb996379	-0.0046810475
141	0x3c8a6d88	0.016897932
142	0xbbfabba2	-0.007651762
143	0xbcb19c74	-0.021681048
144	0xb9ee88a7	-0.0004549671
145	0x3c40bee8	0.011764266
146	0xbccfe03a	-0.025375474
147	0x3cd6c6e3	0.026217883
148	0x3c2aca5d	0.010424224
149	0xbce2ae62	-0.027671043
150	0x3baf00d4	0.005340675
151	0xbc43de0a	-0.011954794
152	0xbbb6466f	-0.0055625956
153	0xbd53fb37	-0.05175325
154	0x3c70ec9d	0.0147048505
155	0x3aab672a	0.001307701
156	0xbd2cb374	-0.042163327
157	0xbc20fb15	-0.009825488
158	0xbd19f8e0	-0.03759086
159	0xbce28a3a	-0.027653802
160	0xbceb7a66	-0.028744888
161	0x3b88dd67	0.004176784
162	0x3d33144d	0.043720532
163	0xbc82c63b	-0.015963664
164	0xbc7f3d99	-0.015578651
165	0xbc57562c	-0.013143104
166	0xbc0c8d26	-0.008578574
167	0x3b8a16f8	0.004214164
168	0x3c45d180	0.0120738745
169	0xbd0764ce	-0.03305512
170	0x3cd4441a	0.02591138
171	0x3c8bd02f	0.017067043
172	0x3cf3c6b1	0.02975783
173	0x3c182403	0.00928593
174	0x3c55ae61	0.013042063
175	0x3c989021	0.018623414
176	0x3c39bcd2	0.011336522
177	0xbc875790	-0.016521245
178	0xbbd3e993	-0.006467053
179	0x3bb915ee	0.005648366
180	0x3c8c3e9b	0.017119696
181	0xb9031603	-0.00012501334
182	0x3c14a4ed	0.0090725245
183	0x3a31b50d	0.0006778993
184	0x3c31b97a	0.010847444
185	0xba04481f	-0.0005046147
186	0xbcce940c	-0.025217079
187	0xbcd53fd1	-0.026031407
188	0xbc99d756	-0.018779438
189	0xbcb7dcb1	-0.022444101
190	0xbc50eeef	-0.012752279
191	0x3c575ee6	0.013145184
192	0x3c09514d	0.0083812
193	0x3ce1f7e0	0.027584016
194	0xbbf4d1d6	-0.0074713035
195	0xbd16da06	-0.036829017
196	0x3ba92e70	0.0051630065
197	0xba9ade85	-0.0011815584
198	0xbc69fe49	-0.014281818
199	0x3cddf24e	0.027093079
200	0x3c3173a2	0.010830792
201	0xbc131aeb	-0.008978586
202	0x3d3a6989	0.045510802
203	0x3a2f03ae	0.00066762685
204	0x3b9407ae	0.004517517
205	0x3d0a6185	0.033784408
206	0x3c5151f2	0.012775885
207	0xbbecf02a	-0.007230778
208	0x3b3cd0d5	0.0028810997
209	0xb81a8b5c	-3.684625e-05
210	0x3cf3bcdd	0.029753143
211	0x3c25b757	0.010114512
212	0xbbb7a8fc	-0.0056048613
213	0x3cad7019	0.021171616
214	0xbcdaf73a	-0.026729215
215	0x3c886671	0.01665041
216	0xbcc90de1	-0.02454275
217	0x3b697d89	0.0035627803
218	0xbd016c2d	-0.031597305
219	0xbc0fa26c	-0.008766752
220	0xbc86670a	-0.016406555
221	0x3c1a353c	0.009412106
222	0x3c045929	0.008077898
223	0x3d107fb4	0.035278037
224	0x3cc789e5	0.024357745
225	0xbcdb5489	-0.026773708
226	0xbcb2b063	-0.021812623
227	0x39fa256c	0.00047711597
228	0xbaa430e2	-0.0012526775
229	0xbc125468	-0.008931257
230	0x3cafdf51	0.02146879
231	0xb9122840	-0.0001393864
232	0x3ba7dbf6	0.005122657
233	0x3c22b81a	0.009931589
234	0x3c9e2e63	0.019309228
235	0xbc8c5d7a	-0.017134417
236	0x3bc59358	0.0060295276
237	0x3c250aca	0.010073373
238	0xbcb98778	-0.022647604
239	0xbb5c932b	-0.0033657055
240	0x3c713be8	0.014723755
241	0x3c3316c1	0.010930718
242	0xbc353ff9	-0.011062616
243	0xbcd7aab7	-0.02632652
244	0xba046c28	-0.0005051517
245	0x3c90d835	0.01768122
246	0x3c4d5842	0.012533249
247	0xbbc29602	-0.0059382925
248	0x3a8e8165	0.0010872303
249	0x3c8af7ba	0.016963828
250	0x3a8c9185	0.001072452
251	0xbcd0187f	-0.025402306
252	0xbb98e800	-0.0046663284
253	0xbc123b68	-0.008925296
254	0x3b3d129a	0.0028850199
255	0xbb5bc4ec	-0.0033534123
